Model/model.pth (torch_old, 120813 bytes, 4 tensors)

0.weight f4 [2000, 10]
0.10780052 0.031812344 -0.17793453 0.053621735 0.101860866 -0.20077556 0.2537441 0.19655624
0.06303622 -0.09352462 0.20124932 0.24086837 -0.0015612579 -0.18820016 -0.24469374 0.060496833
-0.04361645 0.32005328 0.13859311 -0.14210264 -0.24635772 -0.05935312 0.12060768 0.26533
-0.1848052 -0.027279902 -0.3469075 0.179187 -0.23459396 0.23511836 -0.12397271 0.21544541
-0.05561683 0.07267442 -0.06939206 0.12279272 -0.29930928 -0.0055942223 0.3054416 0.21812066
0.03767652 0.004887503 -0.0031867072 0.11537554 -0.13011433 -0.07615429 -0.22260605 0.2778258
0.17632717 0.14847533 0.23083492 -0.10186346 0.19944221 0.106817834 -0.19643871 0.31144622
-0.27347067 0.075070314 -0.12346067 -0.17395155 -0.28454787 -0.016558655 0.27366793 0.11217694
0.26484647 -0.041927714 -0.07913634 0.11931509 0.09025521 0.16532338 -0.045490503 -0.010617772
0.2584259 -0.19950348 -0.13164178 0.0002765041 0.07771374 0.06905374 0.06492949 0.2641918
-0.11957935 -0.1677569 0.25394267 -0.007325134 0.028405117 0.09058737 0.11329756 0.09000095
-0.1519969 0.0929556 0.27922827 0.21685639 -0.10918165 0.17630275 0.02014658 -0.28341037
-0.14735824 -0.29694906 0.18861865 0.26852164 -0.3289394 -0.16463198 0.16398211 -0.16873798
0.16569763 -0.16347401 -0.32934406 -0.16442174 0.16985637 0.31842571 0.27862284 -0.06868545
0.18960495 0.013378332 0.20725113 -0.3036507 0.26661912 0.090147406 -0.103997774 -0.042167354
-0.25526896 0.25569156 -0.124196745 0.3804609 -0.25524503 -0.12483045 -0.13043462 0.38754848
-0.25482902 -0.14494728 0.41013524 0.21278757 -0.19444634 0.21264791 -0.19769274 0.21557239
-0.19699892 0.26415053 -0.19718663 -0.41266695 0.20737606 0.14919204 -0.075750105 0.07940827
0.12578085 -0.19055781 0.24006729 0.115685605 0.06915652 0.06298844 -0.07916422 -0.20292614
0.26137522 -0.36485004 -0.10466948 0.30054036 0.07919402 -0.07837139 0.21073814 0.08257512
0.007516927 0.0029183396 -0.11111489 0.2217154 0.27082536 -0.1599633 0.22486116 0.10622819
0.19638844 -0.09163237 -0.057948586 -0.09689677 0.2641265 -0.12230042 -0.060925785 -0.28036615
0.013794987 0.19852592 -0.08895264 0.23324089 -0.069378816 0.23782903 -0.06886222 -0.022639165
0.052314702 -0.24596304 0.15267326 -0.100219704 0.22412601 -0.12696867 -0.16224791 -0.4618533
-0.21497057 0.3407294 -0.22375068 0.29331213 -0.27964285 0.23249726 -0.24115254 0.20971775
-0.49506995 -0.32059276 -0.3273395 -0.2029609 0.1985412 0.048309125 -0.3628393 0.23507415
0.1463003 0.3167429 0.24520417 -0.22147873 -0.05666595 -0.2951628 0.010680692 -0.21966915
-0.27802676 -0.30033427 -0.29699412 -0.22887158 0.16983473 -0.06493032 -0.06080556 0.2609747
0.2535684 0.2886151 0.30957985 0.20621297 -0.17624 0.23801845 0.18637483 -0.52271724
0.3221523 -0.11585092 -0.4164407 0.0840067 -0.3819583 -0.16147211 0.19839266 0.07658727
0.28403464 0.024747718 0.19014046 -0.19554834 -0.1313774 -0.19833559 -0.12762211 0.182942
0.285983 -0.18260998 0.29026103 -0.3413407 0.3272039 -0.312197 0.3179713 -0.32745907
00000000: 85c6 dc3d a94d 023d 7834 36be 77a2 5b3d
00000010: 6e9c d03d 1c98 4dbe bfea 813e 0a46 493e
00000020: 2219 813d d689 bfbd 4d14 4e3e 33a6 763e
00000030: 1fa3 ccba 8bb7 40be ff90 7abe 87cb 773d
00000040: 2aa7 32bd 06de a33e 5aeb 0d3e 5b83 11be
00000050: 3345 7cbe 421c 73bd 2901 f73d 55d9 873e
00000060: 933d 3dbe 1a7a dfbc dc9d b1be cc7c 373e
00000070: 6639 70be dec2 703e 67e5 fdbd b99d 5c3e
00000080: 79ce 63bd 54d6 943d 6d1d 8ebd c07a fb3d
00000090: 113f 99be bd4f b7bb d762 9c3e 065b 5f3e
000000a0: b252 1a3d 5927 a03b 13d8 50bb 034a ec3d
000000b0: b13c 05be c8f6 9bbd d7f2 63be 2f3f 8e3e
000000c0: 1c8f 343e eb09 183e fd5f 6c3e ca9d d0bd
000000d0: 943a 4c3e 4fc3 da3d 3b27 49be e175 9f3e
000000e0: 5904 8cbe 77be 993d f3d8 fcbd 5b20 32be
000000f0: 42b0 91be 04a6 87bc 341e 8c3e 06bd e53d
00000100: f599 873e 65bc 2bbd 3c12 a2bd 785b f43d
00000110: b9d7 b83d 884a 293e 4054 3abd 2af6 2dbc
00000120: 6650 843e a44a 4cbe 1acd 06be c1f7 9039
00000130: 6228 9f3d 0c6c 8d3d c1f9 843d 2644 873e
00000140: 05e6 f4bd 77c8 2bbe c604 823e ad07 f0bb
00000150: d9b1 e83c df85 b93d 8d08 e83d 6b52 b83d
00000160: 13a5 1bbe 815f be3d 02f7 8e3e 9a0f 5e3e
00000170: a19a dfbd b588 343e 710a a53c 2a1b 91be
00000180: 14e5 16be b509 98be 3f25 413e ab7b 893e
00000190: bf6a a8be 4995 28be edea 273e a6c9 2cbe
000001a0: a4ac 293e bb65 27be c99f a8be 2c5e 28be
000001b0: d4ee 2d3e b208 a33e a7a7 8e3e f5aa 8cbd
000001c0: cd27 423e cb30 5b3c a439 543e 1b78 9bbe
000001d0: 4d82 883e 349f b83d c9fc d4bd adb7 2cbd
000001e0: 9db2 82be 01ea 823e dd5a febd c5cb c23e
000001f0: 7aaf 82be 1ba7 ffbd a790 05be c16c c63e
00000200: f378 82be 0f6d 14be 3ffd d13e fce4 593e
00000210: f11c 47be 60c0 593e f76f 4abe 02bf 5c3e
00000220: 16ba 49be bd3e 873e 4beb 49be 1549 d3be
00000230: 645a 543e ccc5 183e df22 9bbd cea0 a23d
00000240: b2cc 003e 9621 43be 33d4 753e 93ec ec3d
00000250: efa1 8d3d 1500 813d da20 a2bd dfcb 4fbe
00000260: f9d2 853e a0cd babe f45c d6bd 6de0 993e
00000270: 7930 a23d 2e81 a0bd bdcb 573e 251d a93d
00000280: 8e50 f63b 9d41 3f3b 3490 e3bd 5d09 633e
00000290: 9fa9 8a3e 6bcd 23be 0142 663e 2a8e d93d
000002a0: 0d1a 493e c1a9 bbbd 7f5b 6dbd d071 c6bd
000002b0: 973b 873e a578 fabd 518d 79bd 278c 8fbe
000002c0: 5f04 623c 614a 4b3e cd2c b6bd b3d6 6e3e
000002d0: 7b16 8ebd 7489 733e a307 8dbd c575 b9bc
000002e0: f147 563d bcdd 7bbe 6156 1c3e fd3f cdbd
000002f0: 4a81 653e 1304 02be 5124 26be 0978 ecbe
00000300: 3f21 5cbe 1574 ae3e e61e 65be 022d 963e
00000310: 592d 8fbe c313 6e3e b1f0 76be 40c0 563e
00000320: cf79 fdbe bc24 a4be 0b99 a7be fbd4 4fbe
00000330: 624e 4b3e cadf 453d 13c6 b9be 47b7 703e
00000340: bfcf 153e 202c a23e cd16 7b3e 52cb 62be
00000350: 8e1a 68bd 941f 97be 12fe 2e3c f3f0 60be
00000360: 8659 8ebe 6ac5 99be 9d0f 98be 505d 6abe
00000370: 28e9 2d3e 30fa 84bd 400f 79bd 7a9e 853e
00000380: b8d3 813e 5cc5 933e 4081 9e3e 7e29 533e
00000390: 4278 34be 1cbb 733e 0bd9 3e3e ccd0 05bf
000003a0: 25f1 a43e 3f43 edbd b737 d5be b40b ac3d
000003b0: 0a90 c3be f258 25be 7227 4b3e c9d9 9c3d
000003c0: fd6c 913e babb ca3c 2eb4 423e d33d 48be
000003d0: cc87 06be 7c18 4bbe 5faf 02be 2655 3b3e
000003e0: 5d6c 923e 1cfe 3abe 189d 943e 35c4 aebe
000003f0: 4587 a73e 49d8 9fbe 22cd a23e b7a8 a7be

0.bias f4 [2000]
0.27986535 -0.009877817 0.113671124 0.1903242 -0.14756574 0.12620679 -0.16325401 0.13564046
0.20119369 0.06278093 0.0026441722 -0.09275562 -0.24415722 -0.100797236 -0.027845813 -0.10798205
0.30604473 0.2599528 -0.014167206 0.25184974 0.065346 0.018755527 0.2416227 -0.34703422
-0.108877584 -0.058180824 0.2458505 0.023387408 -0.042585492 0.0975772 0.008264899 -0.11589028
0.25273955 0.16035442 -0.11571878 0.21704178 -0.17865841 0.31667736 -0.1834742 0.33638236
-0.016092654 0.09565492 0.22533408 0.21947238 -0.04713732 0.13108774 -0.05261557 -0.21679701
-0.08125454 0.024944182 -0.10564864 0.10958462 0.27623105 0.18081897 -0.19405045 0.23205042
-0.084769905 -0.29802325 0.13260148 -0.014869931 -0.46396643 -0.06065439 0.06545823 0.05601375
0.074158795 -0.093787976 -0.29372725 0.26038507 0.068065606 -0.037806682 0.22229113 -0.19934133
0.27705362 -0.22178727 -0.17326808 0.025432138 0.07870265 0.024699528 0.36382186 0.09895309
0.2566271 -0.2840335 -0.2396365 -0.18657681 0.10005441 0.0124337915 0.19684026 -0.03225402
-0.2890439 -0.27967662 -0.3401091 0.11898226 0.15050481 0.029998139 0.13177691 -0.32072118
-0.21545394 -0.03000878 -0.26156387 -0.0023307614 0.07650517 0.07142022 -0.28707904 0.28984615
-0.28538993 0.029427368 0.27384183 0.028766954 0.38419402 0.06860241 -0.14594147 0.09304795
-0.22652113 -0.27374592 0.10607783 0.069357485 0.12018221 -0.24708639 -0.009800743 -0.06714239
-0.0977671 0.022887016 -0.23047972 0.10610834 0.11654774 0.13528287 -0.20150635 0.08402698
0.03356047 0.30267012 -0.028516755 0.018199312 0.082984366 -0.23788399 -0.15656732 -0.0033640391
-0.32730705 0.15127353 -0.2407286 0.11595041 -0.2761809 -0.2181737 0.09539417 0.09284855
-0.091279246 0.019114686 -0.2585118 -0.042941947 0.29842576 0.072743356 0.035486672 -0.27228683
-0.12494655 0.29436558 0.025534503 0.18539724 0.004796158 -0.1970203 0.16836187 0.13782147
-0.26080316 -0.31502995 -0.06581087 -0.4689312 0.14226374 0.13229814 -0.032564584 0.06197566
0.11265809 -0.19468278 -0.2967913 0.1735893 0.19376099 0.0961196 0.11004754 0.16624354
-0.22234224 0.036569033 0.1931414 -0.2522844 -0.29051182 0.28431138 -0.19632156 -0.30117053
-0.321088 -0.068400264 -0.011791103 0.066937685 -0.050096665 -0.09576428 -0.18868172 0.20960544
0.1057329 0.09942879 -0.05969852 0.30057114 0.1371839 -0.30020708 -0.12605783 -0.32249025
0.23440313 0.079018235 -0.10928843 -0.0023803608 -0.2130957 0.03583106 -0.0113619175 0.24861272
-0.27331534 0.12468229 0.136143 0.04236307 -0.1260926 -0.16424245 0.07225488 -0.052332237
-0.27617466 -0.16576113 -0.03595133 0.10382342 0.0975343 0.2911178 0.5057978 0.032172464
0.044260822 -0.12374708 0.28559738 -0.20387462 0.24734642 0.29352516 -0.15009187 0.006071368
0.075408086 -0.32341605 -0.17061222 -0.32272267 0.23249069 0.2298077 0.039822396 -0.28790906
0.26799378 0.24442925 -0.16286953 -0.3579791 0.30101883 -0.14992972 -0.054879464 0.27638367
-0.33943254 0.27658853 0.042383865 0.30655134 -0.3724179 0.05515913 -0.059086185 0.12538172
00000000: 834a 8f3e 91d6 21bc 68cc e83d 59e4 423e
00000010: 791b 17be 5a3c 013e 0f2c 27be 55e5 0a3e
00000020: b805 4e3e 4a93 803d d949 2d3b a9f6 bdbd
00000030: 5a04 7abe c86e cebd e71c e4bc b125 ddbd
00000040: e5b1 9c3e 8918 853e 921d 68bc 73f2 803e
00000050: 20d4 853d 31a5 993c f16b 773e 78ae b1be
00000060: 36fb debd 044f 6ebd 3cc0 7b3e f396 bf3c
00000070: 206e 2ebd 8ed6 c73d 8069 073c e257 edbd
00000080: 1467 813e f333 243e f8fd ecbd 3340 5e3e
00000090: 3bf2 36be 8923 a23e a9e0 3bbe 4f3a ac3e
000000a0: bed4 83bc bae6 c33d fabd 663e 5ebd 603e
000000b0: 1013 41bd dd3b 063e 6d83 57bd 0900 5ebe
000000c0: c868 a6bd be57 cc3c 505e d8bd e76d e03d
000000d0: 286e 8d3e 9c28 393e 29b5 46be a09e 6d3e
000000e0: d89b adbd 8196 98be afc8 073e 03a1 73bc
000000f0: 028d edbe bd70 78bd f70e 863d ad6e 653d
00000100: 91e0 973d e913 c0bd 6b63 96be 3151 853e
00000110: fb65 8b3d 2edb 1abd 49a0 633e 2220 4cbe
00000120: f9d9 8d3e 341c 63be 306d 31be 0f57 d03c
00000130: db2e a13d aa56 ca3c dc46 ba3e eba7 ca3d
00000140: a164 833e d76c 91be 4563 75be fe0d 3fbe
00000150: 54e9 cc3d 1ab7 4b3c 7e90 493e cb1c 04bd
00000160: 90fd 93be c631 8fbe c822 aebe f9ac f33d
00000170: ef1d 1a3e a8be f53c 87f0 063e 9135 a4be
00000180: f59f 5cbe f9d4 f5bc b3eb 85be b0bf 18bb
00000190: beae 9c3d c444 923d 06fc 92be b766 943e
000001a0: a11e 92be aa11 f13c ff34 8c3e ada8 eb3c
000001b0: 14b5 c43e 6c7f 8c3d ae71 15be ec8f be3d
000001c0: 28f5 67be 6d28 8cbe 553f d93d 4c0b 8e3d
000001d0: 1722 f63d 3704 7dbe 4c93 20bc f381 89bd
000001e0: 1e3a c8bd 8d7d bb3c e002 6cbe 544f d93d
000001f0: 95b0 ee3d 9887 0a3e ae57 4ebe 5616 ac3d
00000200: b476 093d 94f7 9a3e f89b e9bc b916 953c
00000210: b5f3 a93d dc97 73be 2f53 20be 3677 5cbb
00000220: ca94 a7be 73e7 1a3e 8f81 76be 6977 ed3d
00000230: 9567 8dbe ed68 5fbe 055e c33d 6127 be3d
00000240: 9df0 babd 6796 9c3c a95b 84be e5e3 2fbd
00000250: 43cb 983e 78fa 943d 795a 113d 2e69 8bbe
00000260: fae3 ffbd 16b7 963e bc2d d13c c6d8 3d3e
00000270: 1729 9d3b b1bf 49be 0e67 2c3e 1221 0d3e
00000280: fe87 85be 9b4b a1be d9c7 86bd c017 f0be
00000290: 96ad 113e 2a79 073e 7162 05bd 31da 7d3d
000002a0: 49b9 e63d ec5a 47be 07f5 97be 65c1 313e
000002b0: 4869 463e 5ada c43d 9b60 e13d bf3b 2a3e
000002c0: afad 63be 69c9 153d dcc6 453e 6c2b 81be
000002d0: f7bd 94be 4391 913e 8508 49be 0633 9abe
000002e0: a565 a4be 7015 8cbd 782f 41bc a016 893d
000002f0: 2932 4dbd 1020 c4bd c835 41be cfa2 563e
00000300: 7e8a d83d 52a1 cb3d 6f86 74bd 76e4 993e
00000310: f079 0c3e beb4 99be 4e15 01be 711d a5be
00000320: 6007 703e 50d4 a13d 9dd2 dfbd d4ff 1bbb
00000330: c235 5abe 97c3 123d 5627 3abc 5594 7e3e
00000340: fdef 8bbe 6e59 ff3d 1269 0b3e e684 2d3d
00000350: 6b1e 01be 2c2f 28be 5efa 933d 545a 56bd
00000360: c466 8dbe 49bd 29be b441 13bd 60a1 d43d
00000370: 10c0 c73d 640d 953e f77b 013f 46c7 033d
00000380: d64a 353d 1c6f fdbd d239 923e 82c4 50be
00000390: 6148 7d3e ee48 963e afb1 19be 54f2 c63b
000003a0: 8e6f 9a3d ca96 a5be f8b4 2ebe e83b a5be
000003b0: 0a12 6e3e b652 6b3e cf1c 233d d168 93be
000003c0: 7b36 893e a94b 7a3e 45c7 26be 0949 b7be
000003d0: 241f 9a3e 2d87 19be 4ac9 60bd 2982 8d3e
000003e0: 1aca adbe 039d 8d3e b49a 2d3d 4cf4 9c3e
000003f0: 8fad bebe 8aee 613d 5b04 72bd 1164 003e

2.weight f4 [4, 2000]
0.0064571677 -0.00076145696 -0.055284042 0.0009956434 0.023532357 0.002936028 0.0069373995 0.0074165124
0.018852567 -0.016976433 0.16707246 -0.02317644 -0.13853054 0.10410877 0.0018864857 0.051946823
-0.013812008 -0.0119160125 -0.035460148 -0.1690979 0.003069096 0.24012001 0.015975324 0.15798987
0.02488071 0.26222226 -0.02006698 0.1218701 0.2849617 -0.016417371 0.0149757555 -0.0051448583
-0.019615363 0.007842283 -0.017626375 -0.050963663 -0.020783216 -0.020658271 -0.02493105 -0.184357
0.25387946 0.029820522 0.012513018 0.026003242 -0.14757936 -0.017073182 0.009287029 0.013701236
0.26992986 0.011459595 -0.12566416 0.061326407 -0.017600143 0.07676092 0.33400238 0.02187741
0.0012614275 0.012110128 -0.18256025 0.26356968 0.26528034 0.10260314 0.010990203 0.14732023
-0.014529249 0.006327803 -0.29287487 -0.00899519 -0.012818452 0.025496764 0.022583887 -0.032897893
0.02854709 0.31642497 -0.081675634 -0.0036553165 -0.008713891 0.14230554 -0.052985214 -0.2116756
-0.09577708 -0.05818423 0.1426403 0.20719509 -0.0050949375 0.008952652 0.017282754 -0.009847545
-0.10240004 0.28571534 -0.13918594 0.03188693 0.018351162 -0.19017442 0.019371357 0.033299815
-0.12088567 0.22156423 0.028218446 0.012780457 -0.27529803 -0.011216179 -0.05403431 -0.017065918
0.0019688115 -0.00974955 0.0026394594 0.01712859 0.26342437 -0.002217298 0.06153323 0.0055889594
-0.07495173 -0.028974086 0.027556883 -0.017707594 -0.019560246 -0.023214296 0.17728804 0.016003944
-0.019364854 -0.0019609313 -0.06795179 0.015440705 0.041085288 -0.08244519 -0.09351401 0.016358962
-0.0074034124 0.020551655 0.25655985 -0.042234153 0.30513144 0.32769075 0.0034173485 0.2913487
-0.21579085 -0.031118536 -0.17028552 -0.1046393 0.026416533 0.009622176 0.0049360082 0.002680505
-0.11289376 -0.011468153 0.13265187 -0.009838067 0.00053849607 -0.06372859 -0.04290841 0.00762041
0.035556108 -0.011074371 0.005561654 -0.020010328 -0.010399165 0.07724822 0.042256467 0.092283785
0.016099889 -0.25849777 -0.025916317 0.2837573 -0.015511497 0.0217918 0.23440135 -0.008565319
0.10582158 -0.09389835 -0.20046154 0.0024529689 0.0373372 -0.010892426 -0.046211723 0.014338633
0.01771044 0.02277877 0.010644642 -0.008615262 -0.018702827 -0.008681261 0.007461698 -0.015644168
-0.0009059414 -0.1131955 0.010982735 0.0049460074 0.012737852 -0.005074671 0.031667944 -0.16942693
-0.07214334 -0.02947015 -0.00034809823 -0.00059373927 -0.006004041 -0.018709255 -0.023705367 0.004188599
-0.006148616 -0.008132906 -0.0057715224 -0.031694237 0.17060444 -0.021529263 -0.015286942 0.143078
-0.001620175 0.012351826 0.2015032 0.021219928 0.0057485723 0.008842591 -0.017647281 0.06126269
-0.23069839 0.021334266 -0.019917103 -0.052333172 -0.27212834 -0.025267985 0.12776421 -0.15213124
-0.008459861 -0.065535575 0.007301282 -0.06744141 -0.053217545 -0.0031241649 0.2605178 -0.021261146
0.020156424 -0.032163847 -0.045941856 -0.015212423 0.027234303 0.019508129 0.024786158 0.20486253
-0.0069643273 0.018237682 0.024124399 0.11591097 0.0070658713 0.0059251436 0.013904242 0.06752182
-0.16403106 0.013312794 0.26337838 0.01058516 0.21190006 0.014400496 0.011335353 0.004613197
00000000: a696 d33b 839c 47ba 8571 62bd 4080 823a
00000010: eec6 c03c 606a 403b 2053 e33b 3706 f33b
00000020: b370 9a3c 2912 8bbc 0b15 2b3e 84dc bdbc
00000030: f3da 0dbe fb36 d53d f543 f73a 31c6 543d
00000040: c34b 62bc 613b 43bc a93e 11bd 0028 2dbe
00000050: e322 493b 05e2 753e afde 823c 19c8 213e
00000060: a1d2 cb3c ff41 863e 8263 a4bc 0897 f93d
00000070: 80e6 913e b97d 86bc df5c 753c 3396 a8bb
00000080: 66b0 a0bc eb7c 003c 3065 90bc 46bf 50bd
00000090: 9041 aabc 893b a9bc 343c ccbc 15c8 3cbe
000000a0: 7dfc 813e 2b4a f43c 6703 4d3c c004 d53c
000000b0: 0b1f 17be 0fdd 8bbc 9f28 183c 267b 603c
000000c0: 3f34 8a3e 06c1 3b3c 1bae 00be 6631 7b3d
000000d0: 2d2e 90bc d434 9d3d 5c02 ab3e 4138 b33c
000000e0: 7c56 a53a 8f69 463c 13f1 3abe 9bf2 863e
000000f0: d3d2 873e 9821 d23d 4110 343c 1ddb 163e
00000100: 160c 6ebc 7559 cf3b b2f3 95be 9060 13bc
00000110: 7c04 52bc 97de d03c d801 b93c f1bf 06bd
00000120: 96db e93c 7402 a23e 8e45 a7bd 098e 6fbb
00000130: b5c4 0ebc 8bb8 113e 0607 59bd 7dc1 58be
00000140: c626 c4bd 9652 6ebd 4c10 123e f32a 543e
00000150: 6ff3 a6bb 25ae 123c 9094 8d3c 9957 21bc
00000160: 1db7 d1bd 4849 923e c286 0ebe df9b 023d
00000170: 2d55 963c 15bd 42be aeb0 9e3c 6365 083d
00000180: e892 f7bd bce1 623e 5f2a e73c 1f65 513c
00000190: ddf3 8cbe 10c4 37bc 1553 5dbd d3cd 8bbc
000001a0: 2d07 013b 94bc 1fbc c8fa 2c3b 4251 8c3c
000001b0: 8fdf 863e 1650 11bb 450a 7c3d 9723 b73b
000001c0: 4b80 99bd 105b edbc f9be e13c 840f 91bc
000001d0: cf3c a0bc e82b bebc ff8a 353e b41a 833c
000001e0: 0ba3 9ebc f882 00bb 4f2a 8bbd 03fb 7c3c
000001f0: 0c49 283d 06d9 a8bd 4684 bfbd 3b03 863c
00000200: 5398 f2bb f25b a83c d05b 833e b8fd 2cbd
00000210: 303a 9c3e 15c7 a73e 98f5 5f3b a82b 953e
00000220: 47f8 5cbe 4dec febc 545f 2ebe 214d d6bd
00000230: 7c67 d83c 55a6 1d3c 3dbe a13b 69ab 2f3b
00000240: d834 e7bd ece4 3bbc e4d5 073e d82f 21bc
00000250: dc29 0d3a 2384 82bd bbc0 2fbd a2b4 f93b
00000260: 48a3 113d 4771 35bc 893e b63b b3ec a3bc
00000270: 4261 2abc 5134 9e3d 1e15 2d3d 48ff bc3d
00000280: eae3 833c d259 84be 754e d4bc a348 913e
00000290: ef23 7ebc b884 b23c e806 703e 8d55 0cbc
000002a0: fcb8 d83d c74d c0bd ca45 4dbe fdc1 203b
000002b0: e4ee 183d 2576 32bc 8148 3dbd 96ec 6a3c
000002c0: 7c15 913c 8b9a ba3c dd66 2e3c 0727 0dbc
000002d0: ac36 99bc d93b 0ebc 4281 f43b 3328 80bc
000002e0: b37c 6dba 0bd3 e7bd eef0 333c 1e12 a23b
000002f0: 6cb2 503c 6d49 a6bb 3fb6 013d 417e 2dbe
00000300: e3bf 93bd 626b f1bc f480 b6b9 2ba5 1bba
00000310: 8cbd c4bb 2744 99bc c231 c2bc 8440 893b
00000320: 547a c9bb e13f 05bc 0a1f bdbb d1d1 01bd
00000330: eeb2 2e3e 235e b0bc 1576 7abc 0a83 123e
00000340: 0d5c d4ba 505f 4a3c db56 4e3e 6ad5 ad3c
00000350: 855e bc3b 84e0 103c 0891 90bc 96ee 7a3d
00000360: 333c 6cbe 33c5 ae3c 3129 a3bc 4f5b 56bd
00000370: 6854 8bbe cefe cebc 9fd4 023e 4bc8 1bbe
00000380: 3b9b 0abc 8437 86bd 983f ef3b b91e 8abd
00000390: a4fa 59bd cabe 4cbb 9762 853e db2b aebc
000003a0: 161f a53c 3dbe 03bd 872d 3cbd 873d 79bc
000003b0: 791a df3c 83cf 9f3c 570c cb3c 7cc7 513e
000003c0: 0335 e4bb 3167 953c 88a0 c53c bb62 ed3d
000003d0: d388 e73b b527 c23b 9ece 633c e148 8a3d
000003e0: c2f7 27be e81d 5a3c 88d9 863e 616d 2d3c
000003f0: 54fc 583e 0ff0 6b3c ebb7 393c 4d2a 973b

2.bias f4 [4]
-0.009186526 0.011355257 -0.0065061674 0.005845936
00000000: 1583 16bc 660b 3a3c b031 d5bb 448f bf3b
